name: "CIFAR10_resnet"
layer {
  name: "cifar"
  type: "Data"
  top: "data"
  top: "label"
  include {
    phase: TRAIN
  }
  transform_param {
    # We use the same image mean file for all workers
    mean_file: "examples/cifar10/1part/mean.binaryproto.0"
  }
  data_param {
    source: "examples/cifar10/8parts/cifar10_train_lmdb.%"
    batch_size: 128
    backend: LMDB
    keylist: "examples/cifar10/8parts/cifar10_train.keylist.%"
    num_preshuffles: 0
  }
}
layer {
  name: "cifar"
  type: "Data"
  top: "data"
  top: "label"
  include {
    phase: TEST
  }
  transform_param {
    # We use the same image mean file for all workers
    mean_file: "examples/cifar10/1part/mean.binaryproto.0"
  }
  data_param {
    source: "examples/cifar10/8parts/cifar10_test_lmdb.%"
    batch_size: 128
    backend: LMDB
    keylist: "examples/cifar10/8parts/cifar10_test.keylist.%"
    num_preshuffles: 0
  }
}
# layer {
  # bottom: "data"
  # name: "zscore"
  # top: "zscore"
  # top: "zscore/temp1"
  # top: "zscore/temp2"
  # top: "zscore/temp3"
  # top: "zscore/temp4"
  # type: "BatchNorm"
  # batch_norm_param {
    # moving_average_fraction: 0.900000
    # eps: 0.000100
    # use_global_stats: false
    # scale_filler {
      # type: "constant"
      # value: 1 
    # }
    # bias_filler {
      # type: "constant"
      # value: 0 
    # }
  # }
# }
layer {
  # bottom: "zscore"
  bottom: "data"
  top: "conv0"
  name: "conv0"
  type: "Convolution"
  convolution_param {
    num_output: 16
    pad: 1
    kernel_size: 3
    stride: 1
    weight_filler {
      type: "xavier"
    }
    bias_term: false
  }
}
layer {
  bottom: "conv0"
  name: "conv0_bn"
  top: "conv0_bn"
  top: "conv0_bn/temp1"
  top: "conv0_bn/temp2"
  top: "conv0_bn/temp3"
  top: "conv0_bn/temp4"
  type: "BatchNorm"
  batch_norm_param {
    moving_average_fraction: 0.900000
    eps: 0.000020
    use_global_stats: false
    scale_filler {
      type: "constant"
      value: 1 
    }
    bias_filler {
      type: "constant"
      value: 0 
    }
  }
}
layer {
  bottom: "conv0_bn"
  top: "conv0_bn"
  name: "conv0_relu"
  type: "ReLU"
}
layer {
  bottom: "conv0_bn"
  top: "level1_block1_conv1"
  name: "level1_block1_conv1"
  type: "Convolution"
  convolution_param {
    num_output: 16
    pad: 1
    kernel_size: 3
    stride: 1
    weight_filler {
      type: "xavier"
    }
    bias_term: false
  }
}
layer {
  bottom: "level1_block1_conv1"
  name: "level1_block1_conv1_bn"
  top: "level1_block1_conv1_bn"
  top: "level1_block1_conv1_bn/temp1"
  top: "level1_block1_conv1_bn/temp2"
  top: "level1_block1_conv1_bn/temp3"
  top: "level1_block1_conv1_bn/temp4"
  type: "BatchNorm"
  batch_norm_param {
    moving_average_fraction: 0.900000
    eps: 0.000020
    use_global_stats: false
    scale_filler {
      type: "constant"
      value: 1 
    }
    bias_filler {
      type: "constant"
      value: 0 
    }
  }
}
layer {
  bottom: "level1_block1_conv1_bn"
  top: "level1_block1_conv1_bn"
  name: "level1_block1_conv1_relu"
  type: "ReLU"
}
layer {
  bottom: "level1_block1_conv1_bn"
  top: "level1_block1_conv2"
  name: "level1_block1_conv2"
  type: "Convolution"
  convolution_param {
    num_output: 16
    pad: 1
    kernel_size: 3
    stride: 1
    weight_filler {
      type: "xavier"
    }
    bias_term: false
  }
}
layer {
  bottom: "level1_block1_conv2"
  name: "level1_block1_conv2_bn"
  top: "level1_block1_conv2_bn"
  top: "level1_block1_conv2_bn/temp1"
  top: "level1_block1_conv2_bn/temp2"
  top: "level1_block1_conv2_bn/temp3"
  top: "level1_block1_conv2_bn/temp4"
  type: "BatchNorm"
  batch_norm_param {
    moving_average_fraction: 0.900000
    eps: 0.000020
    use_global_stats: false
    scale_filler {
      type: "constant"
      value: 1 
    }
    bias_filler {
      type: "constant"
      value: 0 
    }
  }
}
layer {
  bottom: "conv0_bn"
  bottom: "level1_block1_conv2_bn"
  top: "level1_block1_fused"
  name: "level1_block1_fused"
  type: "Eltwise"
}
layer {
  bottom: "level1_block1_fused"
  top: "level1_block1_fused"
  name: "level1_block1_relu"
  type: "ReLU"
}
layer {
  bottom: "level1_block1_fused"
  top: "level1_block2_conv1"
  name: "level1_block2_conv1"
  type: "Convolution"
  convolution_param {
    num_output: 16
    pad: 1
    kernel_size: 3
    stride: 1
    weight_filler {
      type: "xavier"
    }
    bias_term: false
  }
}
layer {
  bottom: "level1_block2_conv1"
  name: "level1_block2_conv1_bn"
  top: "level1_block2_conv1_bn"
  top: "level1_block2_conv1_bn/temp1"
  top: "level1_block2_conv1_bn/temp2"
  top: "level1_block2_conv1_bn/temp3"
  top: "level1_block2_conv1_bn/temp4"
  type: "BatchNorm"
  batch_norm_param {
    moving_average_fraction: 0.900000
    eps: 0.000020
    use_global_stats: false
    scale_filler {
      type: "constant"
      value: 1 
    }
    bias_filler {
      type: "constant"
      value: 0 
    }
  }
}
layer {
  bottom: "level1_block2_conv1_bn"
  top: "level1_block2_conv1_bn"
  name: "level1_block2_conv1_relu"
  type: "ReLU"
}
layer {
  bottom: "level1_block2_conv1_bn"
  top: "level1_block2_conv2"
  name: "level1_block2_conv2"
  type: "Convolution"
  convolution_param {
    num_output: 16
    pad: 1
    kernel_size: 3
    stride: 1
    weight_filler {
      type: "xavier"
    }
    bias_term: false
  }
}
layer {
  bottom: "level1_block2_conv2"
  name: "level1_block2_conv2_bn"
  top: "level1_block2_conv2_bn"
  top: "level1_block2_conv2_bn/temp1"
  top: "level1_block2_conv2_bn/temp2"
  top: "level1_block2_conv2_bn/temp3"
  top: "level1_block2_conv2_bn/temp4"
  type: "BatchNorm"
  batch_norm_param {
    moving_average_fraction: 0.900000
    eps: 0.000020
    use_global_stats: false
    scale_filler {
      type: "constant"
      value: 1 
    }
    bias_filler {
      type: "constant"
      value: 0 
    }
  }
}
layer {
  bottom: "level1_block1_fused"
  bottom: "level1_block2_conv2_bn"
  top: "level1_block2_fused"
  name: "level1_block2_fused"
  type: "Eltwise"
}
layer {
  bottom: "level1_block2_fused"
  top: "level1_block2_fused"
  name: "level1_block2_relu"
  type: "ReLU"
}
layer {
  bottom: "level1_block2_fused"
  top: "level1_block3_conv1"
  name: "level1_block3_conv1"
  type: "Convolution"
  convolution_param {
    num_output: 16
    pad: 1
    kernel_size: 3
    stride: 1
    weight_filler {
      type: "xavier"
    }
    bias_term: false
  }
}
layer {
  bottom: "level1_block3_conv1"
  name: "level1_block3_conv1_bn"
  top: "level1_block3_conv1_bn"
  top: "level1_block3_conv1_bn/temp1"
  top: "level1_block3_conv1_bn/temp2"
  top: "level1_block3_conv1_bn/temp3"
  top: "level1_block3_conv1_bn/temp4"
  type: "BatchNorm"
  batch_norm_param {
    moving_average_fraction: 0.900000
    eps: 0.000020
    use_global_stats: false
    scale_filler {
      type: "constant"
      value: 1 
    }
    bias_filler {
      type: "constant"
      value: 0 
    }
  }
}
layer {
  bottom: "level1_block3_conv1_bn"
  top: "level1_block3_conv1_bn"
  name: "level1_block3_conv1_relu"
  type: "ReLU"
}
layer {
  bottom: "level1_block3_conv1_bn"
  top: "level1_block3_conv2"
  name: "level1_block3_conv2"
  type: "Convolution"
  convolution_param {
    num_output: 16
    pad: 1
    kernel_size: 3
    stride: 1
    weight_filler {
      type: "xavier"
    }
    bias_term: false
  }
}
layer {
  bottom: "level1_block3_conv2"
  name: "level1_block3_conv2_bn"
  top: "level1_block3_conv2_bn"
  top: "level1_block3_conv2_bn/temp1"
  top: "level1_block3_conv2_bn/temp2"
  top: "level1_block3_conv2_bn/temp3"
  top: "level1_block3_conv2_bn/temp4"
  type: "BatchNorm"
  batch_norm_param {
    moving_average_fraction: 0.900000
    eps: 0.000020
    use_global_stats: false
    scale_filler {
      type: "constant"
      value: 1 
    }
    bias_filler {
      type: "constant"
      value: 0 
    }
  }
}
layer {
  bottom: "level1_block2_fused"
  bottom: "level1_block3_conv2_bn"
  top: "level1_block3_fused"
  name: "level1_block3_fused"
  type: "Eltwise"
}
layer {
  bottom: "level1_block3_fused"
  top: "level1_block3_fused"
  name: "level1_block3_relu"
  type: "ReLU"
}
layer {
  bottom: "level1_block3_fused"
  top: "level1_block4_conv1"
  name: "level1_block4_conv1"
  type: "Convolution"
  convolution_param {
    num_output: 16
    pad: 1
    kernel_size: 3
    stride: 1
    weight_filler {
      type: "xavier"
    }
    bias_term: false
  }
}
layer {
  bottom: "level1_block4_conv1"
  name: "level1_block4_conv1_bn"
  top: "level1_block4_conv1_bn"
  top: "level1_block4_conv1_bn/temp1"
  top: "level1_block4_conv1_bn/temp2"
  top: "level1_block4_conv1_bn/temp3"
  top: "level1_block4_conv1_bn/temp4"
  type: "BatchNorm"
  batch_norm_param {
    moving_average_fraction: 0.900000
    eps: 0.000020
    use_global_stats: false
    scale_filler {
      type: "constant"
      value: 1 
    }
    bias_filler {
      type: "constant"
      value: 0 
    }
  }
}
layer {
  bottom: "level1_block4_conv1_bn"
  top: "level1_block4_conv1_bn"
  name: "level1_block4_conv1_relu"
  type: "ReLU"
}
layer {
  bottom: "level1_block4_conv1_bn"
  top: "level1_block4_conv2"
  name: "level1_block4_conv2"
  type: "Convolution"
  convolution_param {
    num_output: 16
    pad: 1
    kernel_size: 3
    stride: 1
    weight_filler {
      type: "xavier"
    }
    bias_term: false
  }
}
layer {
  bottom: "level1_block4_conv2"
  name: "level1_block4_conv2_bn"
  top: "level1_block4_conv2_bn"
  top: "level1_block4_conv2_bn/temp1"
  top: "level1_block4_conv2_bn/temp2"
  top: "level1_block4_conv2_bn/temp3"
  top: "level1_block4_conv2_bn/temp4"
  type: "BatchNorm"
  batch_norm_param {
    moving_average_fraction: 0.900000
    eps: 0.000020
    use_global_stats: false
    scale_filler {
      type: "constant"
      value: 1 
    }
    bias_filler {
      type: "constant"
      value: 0 
    }
  }
}
layer {
  bottom: "level1_block3_fused"
  bottom: "level1_block4_conv2_bn"
  top: "level1_block4_fused"
  name: "level1_block4_fused"
  type: "Eltwise"
}
layer {
  bottom: "level1_block4_fused"
  top: "level1_block4_fused"
  name: "level1_block4_relu"
  type: "ReLU"
}
layer {
  bottom: "level1_block4_fused"
  top: "level1_block5_conv1"
  name: "level1_block5_conv1"
  type: "Convolution"
  convolution_param {
    num_output: 16
    pad: 1
    kernel_size: 3
    stride: 1
    weight_filler {
      type: "xavier"
    }
    bias_term: false
  }
}
layer {
  bottom: "level1_block5_conv1"
  name: "level1_block5_conv1_bn"
  top: "level1_block5_conv1_bn"
  top: "level1_block5_conv1_bn/temp1"
  top: "level1_block5_conv1_bn/temp2"
  top: "level1_block5_conv1_bn/temp3"
  top: "level1_block5_conv1_bn/temp4"
  type: "BatchNorm"
  batch_norm_param {
    moving_average_fraction: 0.900000
    eps: 0.000020
    use_global_stats: false
    scale_filler {
      type: "constant"
      value: 1 
    }
    bias_filler {
      type: "constant"
      value: 0 
    }
  }
}
layer {
  bottom: "level1_block5_conv1_bn"
  top: "level1_block5_conv1_bn"
  name: "level1_block5_conv1_relu"
  type: "ReLU"
}
layer {
  bottom: "level1_block5_conv1_bn"
  top: "level1_block5_conv2"
  name: "level1_block5_conv2"
  type: "Convolution"
  convolution_param {
    num_output: 16
    pad: 1
    kernel_size: 3
    stride: 1
    weight_filler {
      type: "xavier"
    }
    bias_term: false
  }
}
layer {
  bottom: "level1_block5_conv2"
  name: "level1_block5_conv2_bn"
  top: "level1_block5_conv2_bn"
  top: "level1_block5_conv2_bn/temp1"
  top: "level1_block5_conv2_bn/temp2"
  top: "level1_block5_conv2_bn/temp3"
  top: "level1_block5_conv2_bn/temp4"
  type: "BatchNorm"
  batch_norm_param {
    moving_average_fraction: 0.900000
    eps: 0.000020
    use_global_stats: false
    scale_filler {
      type: "constant"
      value: 1 
    }
    bias_filler {
      type: "constant"
      value: 0 
    }
  }
}
layer {
  bottom: "level1_block4_fused"
  bottom: "level1_block5_conv2_bn"
  top: "level1_block5_fused"
  name: "level1_block5_fused"
  type: "Eltwise"
}
layer {
  bottom: "level1_block5_fused"
  top: "level1_block5_fused"
  name: "level1_block5_relu"
  type: "ReLU"
}
layer {
  bottom: "level1_block5_fused"
  top: "level1_block6_conv1"
  name: "level1_block6_conv1"
  type: "Convolution"
  convolution_param {
    num_output: 16
    pad: 1
    kernel_size: 3
    stride: 1
    weight_filler {
      type: "xavier"
    }
    bias_term: false
  }
}
layer {
  bottom: "level1_block6_conv1"
  name: "level1_block6_conv1_bn"
  top: "level1_block6_conv1_bn"
  top: "level1_block6_conv1_bn/temp1"
  top: "level1_block6_conv1_bn/temp2"
  top: "level1_block6_conv1_bn/temp3"
  top: "level1_block6_conv1_bn/temp4"
  type: "BatchNorm"
  batch_norm_param {
    moving_average_fraction: 0.900000
    eps: 0.000020
    use_global_stats: false
    scale_filler {
      type: "constant"
      value: 1 
    }
    bias_filler {
      type: "constant"
      value: 0 
    }
  }
}
layer {
  bottom: "level1_block6_conv1_bn"
  top: "level1_block6_conv1_bn"
  name: "level1_block6_conv1_relu"
  type: "ReLU"
}
layer {
  bottom: "level1_block6_conv1_bn"
  top: "level1_block6_conv2"
  name: "level1_block6_conv2"
  type: "Convolution"
  convolution_param {
    num_output: 16
    pad: 1
    kernel_size: 3
    stride: 1
    weight_filler {
      type: "xavier"
    }
    bias_term: false
  }
}
layer {
  bottom: "level1_block6_conv2"
  name: "level1_block6_conv2_bn"
  top: "level1_block6_conv2_bn"
  top: "level1_block6_conv2_bn/temp1"
  top: "level1_block6_conv2_bn/temp2"
  top: "level1_block6_conv2_bn/temp3"
  top: "level1_block6_conv2_bn/temp4"
  type: "BatchNorm"
  batch_norm_param {
    moving_average_fraction: 0.900000
    eps: 0.000020
    use_global_stats: false
    scale_filler {
      type: "constant"
      value: 1 
    }
    bias_filler {
      type: "constant"
      value: 0 
    }
  }
}
layer {
  bottom: "level1_block5_fused"
  bottom: "level1_block6_conv2_bn"
  top: "level1_block6_fused"
  name: "level1_block6_fused"
  type: "Eltwise"
}
layer {
  bottom: "level1_block6_fused"
  top: "level1_block6_fused"
  name: "level1_block6_relu"
  type: "ReLU"
}
layer {
  bottom: "level1_block6_fused"
  top: "level1_block7_conv1"
  name: "level1_block7_conv1"
  type: "Convolution"
  convolution_param {
    num_output: 16
    pad: 1
    kernel_size: 3
    stride: 1
    weight_filler {
      type: "xavier"
    }
    bias_term: false
  }
}
layer {
  bottom: "level1_block7_conv1"
  name: "level1_block7_conv1_bn"
  top: "level1_block7_conv1_bn"
  top: "level1_block7_conv1_bn/temp1"
  top: "level1_block7_conv1_bn/temp2"
  top: "level1_block7_conv1_bn/temp3"
  top: "level1_block7_conv1_bn/temp4"
  type: "BatchNorm"
  batch_norm_param {
    moving_average_fraction: 0.900000
    eps: 0.000020
    use_global_stats: false
    scale_filler {
      type: "constant"
      value: 1 
    }
    bias_filler {
      type: "constant"
      value: 0 
    }
  }
}
layer {
  bottom: "level1_block7_conv1_bn"
  top: "level1_block7_conv1_bn"
  name: "level1_block7_conv1_relu"
  type: "ReLU"
}
layer {
  bottom: "level1_block7_conv1_bn"
  top: "level1_block7_conv2"
  name: "level1_block7_conv2"
  type: "Convolution"
  convolution_param {
    num_output: 16
    pad: 1
    kernel_size: 3
    stride: 1
    weight_filler {
      type: "xavier"
    }
    bias_term: false
  }
}
layer {
  bottom: "level1_block7_conv2"
  name: "level1_block7_conv2_bn"
  top: "level1_block7_conv2_bn"
  top: "level1_block7_conv2_bn/temp1"
  top: "level1_block7_conv2_bn/temp2"
  top: "level1_block7_conv2_bn/temp3"
  top: "level1_block7_conv2_bn/temp4"
  type: "BatchNorm"
  batch_norm_param {
    moving_average_fraction: 0.900000
    eps: 0.000020
    use_global_stats: false
    scale_filler {
      type: "constant"
      value: 1 
    }
    bias_filler {
      type: "constant"
      value: 0 
    }
  }
}
layer {
  bottom: "level1_block6_fused"
  bottom: "level1_block7_conv2_bn"
  top: "level1_block7_fused"
  name: "level1_block7_fused"
  type: "Eltwise"
}
layer {
  bottom: "level1_block7_fused"
  top: "level1_block7_fused"
  name: "level1_block7_relu"
  type: "ReLU"
}
layer {
  bottom: "level1_block7_fused"
  top: "level1_block8_conv1"
  name: "level1_block8_conv1"
  type: "Convolution"
  convolution_param {
    num_output: 16
    pad: 1
    kernel_size: 3
    stride: 1
    weight_filler {
      type: "xavier"
    }
    bias_term: false
  }
}
layer {
  bottom: "level1_block8_conv1"
  name: "level1_block8_conv1_bn"
  top: "level1_block8_conv1_bn"
  top: "level1_block8_conv1_bn/temp1"
  top: "level1_block8_conv1_bn/temp2"
  top: "level1_block8_conv1_bn/temp3"
  top: "level1_block8_conv1_bn/temp4"
  type: "BatchNorm"
  batch_norm_param {
    moving_average_fraction: 0.900000
    eps: 0.000020
    use_global_stats: false
    scale_filler {
      type: "constant"
      value: 1 
    }
    bias_filler {
      type: "constant"
      value: 0 
    }
  }
}
layer {
  bottom: "level1_block8_conv1_bn"
  top: "level1_block8_conv1_bn"
  name: "level1_block8_conv1_relu"
  type: "ReLU"
}
layer {
  bottom: "level1_block8_conv1_bn"
  top: "level1_block8_conv2"
  name: "level1_block8_conv2"
  type: "Convolution"
  convolution_param {
    num_output: 16
    pad: 1
    kernel_size: 3
    stride: 1
    weight_filler {
      type: "xavier"
    }
    bias_term: false
  }
}
layer {
  bottom: "level1_block8_conv2"
  name: "level1_block8_conv2_bn"
  top: "level1_block8_conv2_bn"
  top: "level1_block8_conv2_bn/temp1"
  top: "level1_block8_conv2_bn/temp2"
  top: "level1_block8_conv2_bn/temp3"
  top: "level1_block8_conv2_bn/temp4"
  type: "BatchNorm"
  batch_norm_param {
    moving_average_fraction: 0.900000
    eps: 0.000020
    use_global_stats: false
    scale_filler {
      type: "constant"
      value: 1 
    }
    bias_filler {
      type: "constant"
      value: 0 
    }
  }
}
layer {
  bottom: "level1_block7_fused"
  bottom: "level1_block8_conv2_bn"
  top: "level1_block8_fused"
  name: "level1_block8_fused"
  type: "Eltwise"
}
layer {
  bottom: "level1_block8_fused"
  top: "level1_block8_fused"
  name: "level1_block8_relu"
  type: "ReLU"
}
layer {
  bottom: "level1_block8_fused"
  top: "level1_block9_conv1"
  name: "level1_block9_conv1"
  type: "Convolution"
  convolution_param {
    num_output: 16
    pad: 1
    kernel_size: 3
    stride: 1
    weight_filler {
      type: "xavier"
    }
    bias_term: false
  }
}
layer {
  bottom: "level1_block9_conv1"
  name: "level1_block9_conv1_bn"
  top: "level1_block9_conv1_bn"
  top: "level1_block9_conv1_bn/temp1"
  top: "level1_block9_conv1_bn/temp2"
  top: "level1_block9_conv1_bn/temp3"
  top: "level1_block9_conv1_bn/temp4"
  type: "BatchNorm"
  batch_norm_param {
    moving_average_fraction: 0.900000
    eps: 0.000020
    use_global_stats: false
    scale_filler {
      type: "constant"
      value: 1 
    }
    bias_filler {
      type: "constant"
      value: 0 
    }
  }
}
layer {
  bottom: "level1_block9_conv1_bn"
  top: "level1_block9_conv1_bn"
  name: "level1_block9_conv1_relu"
  type: "ReLU"
}
layer {
  bottom: "level1_block9_conv1_bn"
  top: "level1_block9_conv2"
  name: "level1_block9_conv2"
  type: "Convolution"
  convolution_param {
    num_output: 16
    pad: 1
    kernel_size: 3
    stride: 1
    weight_filler {
      type: "xavier"
    }
    bias_term: false
  }
}
layer {
  bottom: "level1_block9_conv2"
  name: "level1_block9_conv2_bn"
  top: "level1_block9_conv2_bn"
  top: "level1_block9_conv2_bn/temp1"
  top: "level1_block9_conv2_bn/temp2"
  top: "level1_block9_conv2_bn/temp3"
  top: "level1_block9_conv2_bn/temp4"
  type: "BatchNorm"
  batch_norm_param {
    moving_average_fraction: 0.900000
    eps: 0.000020
    use_global_stats: false
    scale_filler {
      type: "constant"
      value: 1 
    }
    bias_filler {
      type: "constant"
      value: 0 
    }
  }
}
layer {
  bottom: "level1_block8_fused"
  bottom: "level1_block9_conv2_bn"
  top: "level1_block9_fused"
  name: "level1_block9_fused"
  type: "Eltwise"
}
layer {
  bottom: "level1_block9_fused"
  top: "level1_block9_fused"
  name: "level1_block9_relu"
  type: "ReLU"
}
layer {
  bottom: "level1_block9_fused"
  top: "level2_block1_conv1"
  name: "level2_block1_conv1"
  type: "Convolution"
  convolution_param {
    num_output: 32
    pad: 1
    kernel_size: 3
    stride: 2
    weight_filler {
      type: "xavier"
    }
    bias_term: false
  }
}
layer {
  bottom: "level2_block1_conv1"
  name: "level2_block1_conv1_bn"
  top: "level2_block1_conv1_bn"
  top: "level2_block1_conv1_bn/temp1"
  top: "level2_block1_conv1_bn/temp2"
  top: "level2_block1_conv1_bn/temp3"
  top: "level2_block1_conv1_bn/temp4"
  type: "BatchNorm"
  batch_norm_param {
    moving_average_fraction: 0.900000
    eps: 0.000020
    use_global_stats: false
    scale_filler {
      type: "constant"
      value: 1 
    }
    bias_filler {
      type: "constant"
      value: 0 
    }
  }
}
layer {
  bottom: "level2_block1_conv1_bn"
  top: "level2_block1_conv1_bn"
  name: "level2_block1_conv1_relu"
  type: "ReLU"
}
layer {
  bottom: "level2_block1_conv1_bn"
  top: "level2_block1_conv2"
  name: "level2_block1_conv2"
  type: "Convolution"
  convolution_param {
    num_output: 32
    pad: 1
    kernel_size: 3
    stride: 1
    weight_filler {
      type: "xavier"
    }
    bias_term: false
  }
}
layer {
  bottom: "level2_block1_conv2"
  name: "level2_block1_conv2_bn"
  top: "level2_block1_conv2_bn"
  top: "level2_block1_conv2_bn/temp1"
  top: "level2_block1_conv2_bn/temp2"
  top: "level2_block1_conv2_bn/temp3"
  top: "level2_block1_conv2_bn/temp4"
  type: "BatchNorm"
  batch_norm_param {
    moving_average_fraction: 0.900000
    eps: 0.000020
    use_global_stats: false
    scale_filler {
      type: "constant"
      value: 1 
    }
    bias_filler {
      type: "constant"
      value: 0 
    }
  }
}
layer {
  bottom: "level1_block9_fused"
  top: "level2_block1_proj"
  name: "level2_block1_proj"
  type: "Convolution"
  convolution_param {
    num_output: 32
    kernel_size: 2
    stride: 2
    weight_filler {
      type: "xavier"
    }
    bias_term: false
  }
}
layer {
  bottom: "level2_block1_proj"
  bottom: "level2_block1_conv2_bn"
  top: "level2_block1_fused"
  name: "level2_block1_fused"
  type: "Eltwise"
}
layer {
  bottom: "level2_block1_fused"
  top: "level2_block1_fused"
  name: "level2_block1_relu"
  type: "ReLU"
}
layer {
  bottom: "level2_block1_fused"
  top: "level2_block2_conv1"
  name: "level2_block2_conv1"
  type: "Convolution"
  convolution_param {
    num_output: 32
    pad: 1
    kernel_size: 3
    stride: 1
    weight_filler {
      type: "xavier"
    }
    bias_term: false
  }
}
layer {
  bottom: "level2_block2_conv1"
  name: "level2_block2_conv1_bn"
  top: "level2_block2_conv1_bn"
  top: "level2_block2_conv1_bn/temp1"
  top: "level2_block2_conv1_bn/temp2"
  top: "level2_block2_conv1_bn/temp3"
  top: "level2_block2_conv1_bn/temp4"
  type: "BatchNorm"
  batch_norm_param {
    moving_average_fraction: 0.900000
    eps: 0.000020
    use_global_stats: false
    scale_filler {
      type: "constant"
      value: 1 
    }
    bias_filler {
      type: "constant"
      value: 0 
    }
  }
}
layer {
  bottom: "level2_block2_conv1_bn"
  top: "level2_block2_conv1_bn"
  name: "level2_block2_conv1_relu"
  type: "ReLU"
}
layer {
  bottom: "level2_block2_conv1_bn"
  top: "level2_block2_conv2"
  name: "level2_block2_conv2"
  type: "Convolution"
  convolution_param {
    num_output: 32
    pad: 1
    kernel_size: 3
    stride: 1
    weight_filler {
      type: "xavier"
    }
    bias_term: false
  }
}
layer {
  bottom: "level2_block2_conv2"
  name: "level2_block2_conv2_bn"
  top: "level2_block2_conv2_bn"
  top: "level2_block2_conv2_bn/temp1"
  top: "level2_block2_conv2_bn/temp2"
  top: "level2_block2_conv2_bn/temp3"
  top: "level2_block2_conv2_bn/temp4"
  type: "BatchNorm"
  batch_norm_param {
    moving_average_fraction: 0.900000
    eps: 0.000020
    use_global_stats: false
    scale_filler {
      type: "constant"
      value: 1 
    }
    bias_filler {
      type: "constant"
      value: 0 
    }
  }
}
layer {
  bottom: "level2_block1_fused"
  bottom: "level2_block2_conv2_bn"
  top: "level2_block2_fused"
  name: "level2_block2_fused"
  type: "Eltwise"
}
layer {
  bottom: "level2_block2_fused"
  top: "level2_block2_fused"
  name: "level2_block2_relu"
  type: "ReLU"
}
layer {
  bottom: "level2_block2_fused"
  top: "level2_block3_conv1"
  name: "level2_block3_conv1"
  type: "Convolution"
  convolution_param {
    num_output: 32
    pad: 1
    kernel_size: 3
    stride: 1
    weight_filler {
      type: "xavier"
    }
    bias_term: false
  }
}
layer {
  bottom: "level2_block3_conv1"
  name: "level2_block3_conv1_bn"
  top: "level2_block3_conv1_bn"
  top: "level2_block3_conv1_bn/temp1"
  top: "level2_block3_conv1_bn/temp2"
  top: "level2_block3_conv1_bn/temp3"
  top: "level2_block3_conv1_bn/temp4"
  type: "BatchNorm"
  batch_norm_param {
    moving_average_fraction: 0.900000
    eps: 0.000020
    use_global_stats: false
    scale_filler {
      type: "constant"
      value: 1 
    }
    bias_filler {
      type: "constant"
      value: 0 
    }
  }
}
layer {
  bottom: "level2_block3_conv1_bn"
  top: "level2_block3_conv1_bn"
  name: "level2_block3_conv1_relu"
  type: "ReLU"
}
layer {
  bottom: "level2_block3_conv1_bn"
  top: "level2_block3_conv2"
  name: "level2_block3_conv2"
  type: "Convolution"
  convolution_param {
    num_output: 32
    pad: 1
    kernel_size: 3
    stride: 1
    weight_filler {
      type: "xavier"
    }
    bias_term: false
  }
}
layer {
  bottom: "level2_block3_conv2"
  name: "level2_block3_conv2_bn"
  top: "level2_block3_conv2_bn"
  top: "level2_block3_conv2_bn/temp1"
  top: "level2_block3_conv2_bn/temp2"
  top: "level2_block3_conv2_bn/temp3"
  top: "level2_block3_conv2_bn/temp4"
  type: "BatchNorm"
  batch_norm_param {
    moving_average_fraction: 0.900000
    eps: 0.000020
    use_global_stats: false
    scale_filler {
      type: "constant"
      value: 1 
    }
    bias_filler {
      type: "constant"
      value: 0 
    }
  }
}
layer {
  bottom: "level2_block2_fused"
  bottom: "level2_block3_conv2_bn"
  top: "level2_block3_fused"
  name: "level2_block3_fused"
  type: "Eltwise"
}
layer {
  bottom: "level2_block3_fused"
  top: "level2_block3_fused"
  name: "level2_block3_relu"
  type: "ReLU"
}
layer {
  bottom: "level2_block3_fused"
  top: "level2_block4_conv1"
  name: "level2_block4_conv1"
  type: "Convolution"
  convolution_param {
    num_output: 32
    pad: 1
    kernel_size: 3
    stride: 1
    weight_filler {
      type: "xavier"
    }
    bias_term: false
  }
}
layer {
  bottom: "level2_block4_conv1"
  name: "level2_block4_conv1_bn"
  top: "level2_block4_conv1_bn"
  top: "level2_block4_conv1_bn/temp1"
  top: "level2_block4_conv1_bn/temp2"
  top: "level2_block4_conv1_bn/temp3"
  top: "level2_block4_conv1_bn/temp4"
  type: "BatchNorm"
  batch_norm_param {
    moving_average_fraction: 0.900000
    eps: 0.000020
    use_global_stats: false
    scale_filler {
      type: "constant"
      value: 1 
    }
    bias_filler {
      type: "constant"
      value: 0 
    }
  }
}
layer {
  bottom: "level2_block4_conv1_bn"
  top: "level2_block4_conv1_bn"
  name: "level2_block4_conv1_relu"
  type: "ReLU"
}
layer {
  bottom: "level2_block4_conv1_bn"
  top: "level2_block4_conv2"
  name: "level2_block4_conv2"
  type: "Convolution"
  convolution_param {
    num_output: 32
    pad: 1
    kernel_size: 3
    stride: 1
    weight_filler {
      type: "xavier"
    }
    bias_term: false
  }
}
layer {
  bottom: "level2_block4_conv2"
  name: "level2_block4_conv2_bn"
  top: "level2_block4_conv2_bn"
  top: "level2_block4_conv2_bn/temp1"
  top: "level2_block4_conv2_bn/temp2"
  top: "level2_block4_conv2_bn/temp3"
  top: "level2_block4_conv2_bn/temp4"
  type: "BatchNorm"
  batch_norm_param {
    moving_average_fraction: 0.900000
    eps: 0.000020
    use_global_stats: false
    scale_filler {
      type: "constant"
      value: 1 
    }
    bias_filler {
      type: "constant"
      value: 0 
    }
  }
}
layer {
  bottom: "level2_block3_fused"
  bottom: "level2_block4_conv2_bn"
  top: "level2_block4_fused"
  name: "level2_block4_fused"
  type: "Eltwise"
}
layer {
  bottom: "level2_block4_fused"
  top: "level2_block4_fused"
  name: "level2_block4_relu"
  type: "ReLU"
}
layer {
  bottom: "level2_block4_fused"
  top: "level2_block5_conv1"
  name: "level2_block5_conv1"
  type: "Convolution"
  convolution_param {
    num_output: 32
    pad: 1
    kernel_size: 3
    stride: 1
    weight_filler {
      type: "xavier"
    }
    bias_term: false
  }
}
layer {
  bottom: "level2_block5_conv1"
  name: "level2_block5_conv1_bn"
  top: "level2_block5_conv1_bn"
  top: "level2_block5_conv1_bn/temp1"
  top: "level2_block5_conv1_bn/temp2"
  top: "level2_block5_conv1_bn/temp3"
  top: "level2_block5_conv1_bn/temp4"
  type: "BatchNorm"
  batch_norm_param {
    moving_average_fraction: 0.900000
    eps: 0.000020
    use_global_stats: false
    scale_filler {
      type: "constant"
      value: 1 
    }
    bias_filler {
      type: "constant"
      value: 0 
    }
  }
}
layer {
  bottom: "level2_block5_conv1_bn"
  top: "level2_block5_conv1_bn"
  name: "level2_block5_conv1_relu"
  type: "ReLU"
}
layer {
  bottom: "level2_block5_conv1_bn"
  top: "level2_block5_conv2"
  name: "level2_block5_conv2"
  type: "Convolution"
  convolution_param {
    num_output: 32
    pad: 1
    kernel_size: 3
    stride: 1
    weight_filler {
      type: "xavier"
    }
    bias_term: false
  }
}
layer {
  bottom: "level2_block5_conv2"
  name: "level2_block5_conv2_bn"
  top: "level2_block5_conv2_bn"
  top: "level2_block5_conv2_bn/temp1"
  top: "level2_block5_conv2_bn/temp2"
  top: "level2_block5_conv2_bn/temp3"
  top: "level2_block5_conv2_bn/temp4"
  type: "BatchNorm"
  batch_norm_param {
    moving_average_fraction: 0.900000
    eps: 0.000020
    use_global_stats: false
    scale_filler {
      type: "constant"
      value: 1 
    }
    bias_filler {
      type: "constant"
      value: 0 
    }
  }
}
layer {
  bottom: "level2_block4_fused"
  bottom: "level2_block5_conv2_bn"
  top: "level2_block5_fused"
  name: "level2_block5_fused"
  type: "Eltwise"
}
layer {
  bottom: "level2_block5_fused"
  top: "level2_block5_fused"
  name: "level2_block5_relu"
  type: "ReLU"
}
layer {
  bottom: "level2_block5_fused"
  top: "level2_block6_conv1"
  name: "level2_block6_conv1"
  type: "Convolution"
  convolution_param {
    num_output: 32
    pad: 1
    kernel_size: 3
    stride: 1
    weight_filler {
      type: "xavier"
    }
    bias_term: false
  }
}
layer {
  bottom: "level2_block6_conv1"
  name: "level2_block6_conv1_bn"
  top: "level2_block6_conv1_bn"
  top: "level2_block6_conv1_bn/temp1"
  top: "level2_block6_conv1_bn/temp2"
  top: "level2_block6_conv1_bn/temp3"
  top: "level2_block6_conv1_bn/temp4"
  type: "BatchNorm"
  batch_norm_param {
    moving_average_fraction: 0.900000
    eps: 0.000020
    use_global_stats: false
    scale_filler {
      type: "constant"
      value: 1 
    }
    bias_filler {
      type: "constant"
      value: 0 
    }
  }
}
layer {
  bottom: "level2_block6_conv1_bn"
  top: "level2_block6_conv1_bn"
  name: "level2_block6_conv1_relu"
  type: "ReLU"
}
layer {
  bottom: "level2_block6_conv1_bn"
  top: "level2_block6_conv2"
  name: "level2_block6_conv2"
  type: "Convolution"
  convolution_param {
    num_output: 32
    pad: 1
    kernel_size: 3
    stride: 1
    weight_filler {
      type: "xavier"
    }
    bias_term: false
  }
}
layer {
  bottom: "level2_block6_conv2"
  name: "level2_block6_conv2_bn"
  top: "level2_block6_conv2_bn"
  top: "level2_block6_conv2_bn/temp1"
  top: "level2_block6_conv2_bn/temp2"
  top: "level2_block6_conv2_bn/temp3"
  top: "level2_block6_conv2_bn/temp4"
  type: "BatchNorm"
  batch_norm_param {
    moving_average_fraction: 0.900000
    eps: 0.000020
    use_global_stats: false
    scale_filler {
      type: "constant"
      value: 1 
    }
    bias_filler {
      type: "constant"
      value: 0 
    }
  }
}
layer {
  bottom: "level2_block5_fused"
  bottom: "level2_block6_conv2_bn"
  top: "level2_block6_fused"
  name: "level2_block6_fused"
  type: "Eltwise"
}
layer {
  bottom: "level2_block6_fused"
  top: "level2_block6_fused"
  name: "level2_block6_relu"
  type: "ReLU"
}
layer {
  bottom: "level2_block6_fused"
  top: "level2_block7_conv1"
  name: "level2_block7_conv1"
  type: "Convolution"
  convolution_param {
    num_output: 32
    pad: 1
    kernel_size: 3
    stride: 1
    weight_filler {
      type: "xavier"
    }
    bias_term: false
  }
}
layer {
  bottom: "level2_block7_conv1"
  name: "level2_block7_conv1_bn"
  top: "level2_block7_conv1_bn"
  top: "level2_block7_conv1_bn/temp1"
  top: "level2_block7_conv1_bn/temp2"
  top: "level2_block7_conv1_bn/temp3"
  top: "level2_block7_conv1_bn/temp4"
  type: "BatchNorm"
  batch_norm_param {
    moving_average_fraction: 0.900000
    eps: 0.000020
    use_global_stats: false
    scale_filler {
      type: "constant"
      value: 1 
    }
    bias_filler {
      type: "constant"
      value: 0 
    }
  }
}
layer {
  bottom: "level2_block7_conv1_bn"
  top: "level2_block7_conv1_bn"
  name: "level2_block7_conv1_relu"
  type: "ReLU"
}
layer {
  bottom: "level2_block7_conv1_bn"
  top: "level2_block7_conv2"
  name: "level2_block7_conv2"
  type: "Convolution"
  convolution_param {
    num_output: 32
    pad: 1
    kernel_size: 3
    stride: 1
    weight_filler {
      type: "xavier"
    }
    bias_term: false
  }
}
layer {
  bottom: "level2_block7_conv2"
  name: "level2_block7_conv2_bn"
  top: "level2_block7_conv2_bn"
  top: "level2_block7_conv2_bn/temp1"
  top: "level2_block7_conv2_bn/temp2"
  top: "level2_block7_conv2_bn/temp3"
  top: "level2_block7_conv2_bn/temp4"
  type: "BatchNorm"
  batch_norm_param {
    moving_average_fraction: 0.900000
    eps: 0.000020
    use_global_stats: false
    scale_filler {
      type: "constant"
      value: 1 
    }
    bias_filler {
      type: "constant"
      value: 0 
    }
  }
}
layer {
  bottom: "level2_block6_fused"
  bottom: "level2_block7_conv2_bn"
  top: "level2_block7_fused"
  name: "level2_block7_fused"
  type: "Eltwise"
}
layer {
  bottom: "level2_block7_fused"
  top: "level2_block7_fused"
  name: "level2_block7_relu"
  type: "ReLU"
}
layer {
  bottom: "level2_block7_fused"
  top: "level2_block8_conv1"
  name: "level2_block8_conv1"
  type: "Convolution"
  convolution_param {
    num_output: 32
    pad: 1
    kernel_size: 3
    stride: 1
    weight_filler {
      type: "xavier"
    }
    bias_term: false
  }
}
layer {
  bottom: "level2_block8_conv1"
  name: "level2_block8_conv1_bn"
  top: "level2_block8_conv1_bn"
  top: "level2_block8_conv1_bn/temp1"
  top: "level2_block8_conv1_bn/temp2"
  top: "level2_block8_conv1_bn/temp3"
  top: "level2_block8_conv1_bn/temp4"
  type: "BatchNorm"
  batch_norm_param {
    moving_average_fraction: 0.900000
    eps: 0.000020
    use_global_stats: false
    scale_filler {
      type: "constant"
      value: 1 
    }
    bias_filler {
      type: "constant"
      value: 0 
    }
  }
}
layer {
  bottom: "level2_block8_conv1_bn"
  top: "level2_block8_conv1_bn"
  name: "level2_block8_conv1_relu"
  type: "ReLU"
}
layer {
  bottom: "level2_block8_conv1_bn"
  top: "level2_block8_conv2"
  name: "level2_block8_conv2"
  type: "Convolution"
  convolution_param {
    num_output: 32
    pad: 1
    kernel_size: 3
    stride: 1
    weight_filler {
      type: "xavier"
    }
    bias_term: false
  }
}
layer {
  bottom: "level2_block8_conv2"
  name: "level2_block8_conv2_bn"
  top: "level2_block8_conv2_bn"
  top: "level2_block8_conv2_bn/temp1"
  top: "level2_block8_conv2_bn/temp2"
  top: "level2_block8_conv2_bn/temp3"
  top: "level2_block8_conv2_bn/temp4"
  type: "BatchNorm"
  batch_norm_param {
    moving_average_fraction: 0.900000
    eps: 0.000020
    use_global_stats: false
    scale_filler {
      type: "constant"
      value: 1 
    }
    bias_filler {
      type: "constant"
      value: 0 
    }
  }
}
layer {
  bottom: "level2_block7_fused"
  bottom: "level2_block8_conv2_bn"
  top: "level2_block8_fused"
  name: "level2_block8_fused"
  type: "Eltwise"
}
layer {
  bottom: "level2_block8_fused"
  top: "level2_block8_fused"
  name: "level2_block8_relu"
  type: "ReLU"
}
layer {
  bottom: "level2_block8_fused"
  top: "level2_block9_conv1"
  name: "level2_block9_conv1"
  type: "Convolution"
  convolution_param {
    num_output: 32
    pad: 1
    kernel_size: 3
    stride: 1
    weight_filler {
      type: "xavier"
    }
    bias_term: false
  }
}
layer {
  bottom: "level2_block9_conv1"
  name: "level2_block9_conv1_bn"
  top: "level2_block9_conv1_bn"
  top: "level2_block9_conv1_bn/temp1"
  top: "level2_block9_conv1_bn/temp2"
  top: "level2_block9_conv1_bn/temp3"
  top: "level2_block9_conv1_bn/temp4"
  type: "BatchNorm"
  batch_norm_param {
    moving_average_fraction: 0.900000
    eps: 0.000020
    use_global_stats: false
    scale_filler {
      type: "constant"
      value: 1 
    }
    bias_filler {
      type: "constant"
      value: 0 
    }
  }
}
layer {
  bottom: "level2_block9_conv1_bn"
  top: "level2_block9_conv1_bn"
  name: "level2_block9_conv1_relu"
  type: "ReLU"
}
layer {
  bottom: "level2_block9_conv1_bn"
  top: "level2_block9_conv2"
  name: "level2_block9_conv2"
  type: "Convolution"
  convolution_param {
    num_output: 32
    pad: 1
    kernel_size: 3
    stride: 1
    weight_filler {
      type: "xavier"
    }
    bias_term: false
  }
}
layer {
  bottom: "level2_block9_conv2"
  name: "level2_block9_conv2_bn"
  top: "level2_block9_conv2_bn"
  top: "level2_block9_conv2_bn/temp1"
  top: "level2_block9_conv2_bn/temp2"
  top: "level2_block9_conv2_bn/temp3"
  top: "level2_block9_conv2_bn/temp4"
  type: "BatchNorm"
  batch_norm_param {
    moving_average_fraction: 0.900000
    eps: 0.000020
    use_global_stats: false
    scale_filler {
      type: "constant"
      value: 1 
    }
    bias_filler {
      type: "constant"
      value: 0 
    }
  }
}
layer {
  bottom: "level2_block8_fused"
  bottom: "level2_block9_conv2_bn"
  top: "level2_block9_fused"
  name: "level2_block9_fused"
  type: "Eltwise"
}
layer {
  bottom: "level2_block9_fused"
  top: "level2_block9_fused"
  name: "level2_block9_relu"
  type: "ReLU"
}
layer {
  bottom: "level2_block9_fused"
  top: "level3_block1_conv1"
  name: "level3_block1_conv1"
  type: "Convolution"
  convolution_param {
    num_output: 64
    pad: 1
    kernel_size: 3
    stride: 2
    weight_filler {
      type: "xavier"
    }
    bias_term: false
  }
}
layer {
  bottom: "level3_block1_conv1"
  name: "level3_block1_conv1_bn"
  top: "level3_block1_conv1_bn"
  top: "level3_block1_conv1_bn/temp1"
  top: "level3_block1_conv1_bn/temp2"
  top: "level3_block1_conv1_bn/temp3"
  top: "level3_block1_conv1_bn/temp4"
  type: "BatchNorm"
  batch_norm_param {
    moving_average_fraction: 0.900000
    eps: 0.000020
    use_global_stats: false
    scale_filler {
      type: "constant"
      value: 1 
    }
    bias_filler {
      type: "constant"
      value: 0 
    }
  }
}
layer {
  bottom: "level3_block1_conv1_bn"
  top: "level3_block1_conv1_bn"
  name: "level3_block1_conv1_relu"
  type: "ReLU"
}
layer {
  bottom: "level3_block1_conv1_bn"
  top: "level3_block1_conv2"
  name: "level3_block1_conv2"
  type: "Convolution"
  convolution_param {
    num_output: 64
    pad: 1
    kernel_size: 3
    stride: 1
    weight_filler {
      type: "xavier"
    }
    bias_term: false
  }
}
layer {
  bottom: "level3_block1_conv2"
  name: "level3_block1_conv2_bn"
  top: "level3_block1_conv2_bn"
  top: "level3_block1_conv2_bn/temp1"
  top: "level3_block1_conv2_bn/temp2"
  top: "level3_block1_conv2_bn/temp3"
  top: "level3_block1_conv2_bn/temp4"
  type: "BatchNorm"
  batch_norm_param {
    moving_average_fraction: 0.900000
    eps: 0.000020
    use_global_stats: false
    scale_filler {
      type: "constant"
      value: 1 
    }
    bias_filler {
      type: "constant"
      value: 0 
    }
  }
}
layer {
  bottom: "level2_block9_fused"
  top: "level3_block1_proj"
  name: "level3_block1_proj"
  type: "Convolution"
  convolution_param {
    num_output: 64
    kernel_size: 2
    stride: 2
    weight_filler {
      type: "xavier"
    }
    bias_term: false
  }
}
layer {
  bottom: "level3_block1_proj"
  bottom: "level3_block1_conv2_bn"
  top: "level3_block1_fused"
  name: "level3_block1_fused"
  type: "Eltwise"
}
layer {
  bottom: "level3_block1_fused"
  top: "level3_block1_fused"
  name: "level3_block1_relu"
  type: "ReLU"
}
layer {
  bottom: "level3_block1_fused"
  top: "level3_block2_conv1"
  name: "level3_block2_conv1"
  type: "Convolution"
  convolution_param {
    num_output: 64
    pad: 1
    kernel_size: 3
    stride: 1
    weight_filler {
      type: "xavier"
    }
    bias_term: false
  }
}
layer {
  bottom: "level3_block2_conv1"
  name: "level3_block2_conv1_bn"
  top: "level3_block2_conv1_bn"
  top: "level3_block2_conv1_bn/temp1"
  top: "level3_block2_conv1_bn/temp2"
  top: "level3_block2_conv1_bn/temp3"
  top: "level3_block2_conv1_bn/temp4"
  type: "BatchNorm"
  batch_norm_param {
    moving_average_fraction: 0.900000
    eps: 0.000020
    use_global_stats: false
    scale_filler {
      type: "constant"
      value: 1 
    }
    bias_filler {
      type: "constant"
      value: 0 
    }
  }
}
layer {
  bottom: "level3_block2_conv1_bn"
  top: "level3_block2_conv1_bn"
  name: "level3_block2_conv1_relu"
  type: "ReLU"
}
layer {
  bottom: "level3_block2_conv1_bn"
  top: "level3_block2_conv2"
  name: "level3_block2_conv2"
  type: "Convolution"
  convolution_param {
    num_output: 64
    pad: 1
    kernel_size: 3
    stride: 1
    weight_filler {
      type: "xavier"
    }
    bias_term: false
  }
}
layer {
  bottom: "level3_block2_conv2"
  name: "level3_block2_conv2_bn"
  top: "level3_block2_conv2_bn"
  top: "level3_block2_conv2_bn/temp1"
  top: "level3_block2_conv2_bn/temp2"
  top: "level3_block2_conv2_bn/temp3"
  top: "level3_block2_conv2_bn/temp4"
  type: "BatchNorm"
  batch_norm_param {
    moving_average_fraction: 0.900000
    eps: 0.000020
    use_global_stats: false
    scale_filler {
      type: "constant"
      value: 1 
    }
    bias_filler {
      type: "constant"
      value: 0 
    }
  }
}
layer {
  bottom: "level3_block1_fused"
  bottom: "level3_block2_conv2_bn"
  top: "level3_block2_fused"
  name: "level3_block2_fused"
  type: "Eltwise"
}
layer {
  bottom: "level3_block2_fused"
  top: "level3_block2_fused"
  name: "level3_block2_relu"
  type: "ReLU"
}
layer {
  bottom: "level3_block2_fused"
  top: "level3_block3_conv1"
  name: "level3_block3_conv1"
  type: "Convolution"
  convolution_param {
    num_output: 64
    pad: 1
    kernel_size: 3
    stride: 1
    weight_filler {
      type: "xavier"
    }
    bias_term: false
  }
}
layer {
  bottom: "level3_block3_conv1"
  name: "level3_block3_conv1_bn"
  top: "level3_block3_conv1_bn"
  top: "level3_block3_conv1_bn/temp1"
  top: "level3_block3_conv1_bn/temp2"
  top: "level3_block3_conv1_bn/temp3"
  top: "level3_block3_conv1_bn/temp4"
  type: "BatchNorm"
  batch_norm_param {
    moving_average_fraction: 0.900000
    eps: 0.000020
    use_global_stats: false
    scale_filler {
      type: "constant"
      value: 1 
    }
    bias_filler {
      type: "constant"
      value: 0 
    }
  }
}
layer {
  bottom: "level3_block3_conv1_bn"
  top: "level3_block3_conv1_bn"
  name: "level3_block3_conv1_relu"
  type: "ReLU"
}
layer {
  bottom: "level3_block3_conv1_bn"
  top: "level3_block3_conv2"
  name: "level3_block3_conv2"
  type: "Convolution"
  convolution_param {
    num_output: 64
    pad: 1
    kernel_size: 3
    stride: 1
    weight_filler {
      type: "xavier"
    }
    bias_term: false
  }
}
layer {
  bottom: "level3_block3_conv2"
  name: "level3_block3_conv2_bn"
  top: "level3_block3_conv2_bn"
  top: "level3_block3_conv2_bn/temp1"
  top: "level3_block3_conv2_bn/temp2"
  top: "level3_block3_conv2_bn/temp3"
  top: "level3_block3_conv2_bn/temp4"
  type: "BatchNorm"
  batch_norm_param {
    moving_average_fraction: 0.900000
    eps: 0.000020
    use_global_stats: false
    scale_filler {
      type: "constant"
      value: 1 
    }
    bias_filler {
      type: "constant"
      value: 0 
    }
  }
}
layer {
  bottom: "level3_block2_fused"
  bottom: "level3_block3_conv2_bn"
  top: "level3_block3_fused"
  name: "level3_block3_fused"
  type: "Eltwise"
}
layer {
  bottom: "level3_block3_fused"
  top: "level3_block3_fused"
  name: "level3_block3_relu"
  type: "ReLU"
}
layer {
  bottom: "level3_block3_fused"
  top: "level3_block4_conv1"
  name: "level3_block4_conv1"
  type: "Convolution"
  convolution_param {
    num_output: 64
    pad: 1
    kernel_size: 3
    stride: 1
    weight_filler {
      type: "xavier"
    }
    bias_term: false
  }
}
layer {
  bottom: "level3_block4_conv1"
  name: "level3_block4_conv1_bn"
  top: "level3_block4_conv1_bn"
  top: "level3_block4_conv1_bn/temp1"
  top: "level3_block4_conv1_bn/temp2"
  top: "level3_block4_conv1_bn/temp3"
  top: "level3_block4_conv1_bn/temp4"
  type: "BatchNorm"
  batch_norm_param {
    moving_average_fraction: 0.900000
    eps: 0.000020
    use_global_stats: false
    scale_filler {
      type: "constant"
      value: 1 
    }
    bias_filler {
      type: "constant"
      value: 0 
    }
  }
}
layer {
  bottom: "level3_block4_conv1_bn"
  top: "level3_block4_conv1_bn"
  name: "level3_block4_conv1_relu"
  type: "ReLU"
}
layer {
  bottom: "level3_block4_conv1_bn"
  top: "level3_block4_conv2"
  name: "level3_block4_conv2"
  type: "Convolution"
  convolution_param {
    num_output: 64
    pad: 1
    kernel_size: 3
    stride: 1
    weight_filler {
      type: "xavier"
    }
    bias_term: false
  }
}
layer {
  bottom: "level3_block4_conv2"
  name: "level3_block4_conv2_bn"
  top: "level3_block4_conv2_bn"
  top: "level3_block4_conv2_bn/temp1"
  top: "level3_block4_conv2_bn/temp2"
  top: "level3_block4_conv2_bn/temp3"
  top: "level3_block4_conv2_bn/temp4"
  type: "BatchNorm"
  batch_norm_param {
    moving_average_fraction: 0.900000
    eps: 0.000020
    use_global_stats: false
    scale_filler {
      type: "constant"
      value: 1 
    }
    bias_filler {
      type: "constant"
      value: 0 
    }
  }
}
layer {
  bottom: "level3_block3_fused"
  bottom: "level3_block4_conv2_bn"
  top: "level3_block4_fused"
  name: "level3_block4_fused"
  type: "Eltwise"
}
layer {
  bottom: "level3_block4_fused"
  top: "level3_block4_fused"
  name: "level3_block4_relu"
  type: "ReLU"
}
layer {
  bottom: "level3_block4_fused"
  top: "level3_block5_conv1"
  name: "level3_block5_conv1"
  type: "Convolution"
  convolution_param {
    num_output: 64
    pad: 1
    kernel_size: 3
    stride: 1
    weight_filler {
      type: "xavier"
    }
    bias_term: false
  }
}
layer {
  bottom: "level3_block5_conv1"
  name: "level3_block5_conv1_bn"
  top: "level3_block5_conv1_bn"
  top: "level3_block5_conv1_bn/temp1"
  top: "level3_block5_conv1_bn/temp2"
  top: "level3_block5_conv1_bn/temp3"
  top: "level3_block5_conv1_bn/temp4"
  type: "BatchNorm"
  batch_norm_param {
    moving_average_fraction: 0.900000
    eps: 0.000020
    use_global_stats: false
    scale_filler {
      type: "constant"
      value: 1 
    }
    bias_filler {
      type: "constant"
      value: 0 
    }
  }
}
layer {
  bottom: "level3_block5_conv1_bn"
  top: "level3_block5_conv1_bn"
  name: "level3_block5_conv1_relu"
  type: "ReLU"
}
layer {
  bottom: "level3_block5_conv1_bn"
  top: "level3_block5_conv2"
  name: "level3_block5_conv2"
  type: "Convolution"
  convolution_param {
    num_output: 64
    pad: 1
    kernel_size: 3
    stride: 1
    weight_filler {
      type: "xavier"
    }
    bias_term: false
  }
}
layer {
  bottom: "level3_block5_conv2"
  name: "level3_block5_conv2_bn"
  top: "level3_block5_conv2_bn"
  top: "level3_block5_conv2_bn/temp1"
  top: "level3_block5_conv2_bn/temp2"
  top: "level3_block5_conv2_bn/temp3"
  top: "level3_block5_conv2_bn/temp4"
  type: "BatchNorm"
  batch_norm_param {
    moving_average_fraction: 0.900000
    eps: 0.000020
    use_global_stats: false
    scale_filler {
      type: "constant"
      value: 1 
    }
    bias_filler {
      type: "constant"
      value: 0 
    }
  }
}
layer {
  bottom: "level3_block4_fused"
  bottom: "level3_block5_conv2_bn"
  top: "level3_block5_fused"
  name: "level3_block5_fused"
  type: "Eltwise"
}
layer {
  bottom: "level3_block5_fused"
  top: "level3_block5_fused"
  name: "level3_block5_relu"
  type: "ReLU"
}
layer {
  bottom: "level3_block5_fused"
  top: "level3_block6_conv1"
  name: "level3_block6_conv1"
  type: "Convolution"
  convolution_param {
    num_output: 64
    pad: 1
    kernel_size: 3
    stride: 1
    weight_filler {
      type: "xavier"
    }
    bias_term: false
  }
}
layer {
  bottom: "level3_block6_conv1"
  name: "level3_block6_conv1_bn"
  top: "level3_block6_conv1_bn"
  top: "level3_block6_conv1_bn/temp1"
  top: "level3_block6_conv1_bn/temp2"
  top: "level3_block6_conv1_bn/temp3"
  top: "level3_block6_conv1_bn/temp4"
  type: "BatchNorm"
  batch_norm_param {
    moving_average_fraction: 0.900000
    eps: 0.000020
    use_global_stats: false
    scale_filler {
      type: "constant"
      value: 1 
    }
    bias_filler {
      type: "constant"
      value: 0 
    }
  }
}
layer {
  bottom: "level3_block6_conv1_bn"
  top: "level3_block6_conv1_bn"
  name: "level3_block6_conv1_relu"
  type: "ReLU"
}
layer {
  bottom: "level3_block6_conv1_bn"
  top: "level3_block6_conv2"
  name: "level3_block6_conv2"
  type: "Convolution"
  convolution_param {
    num_output: 64
    pad: 1
    kernel_size: 3
    stride: 1
    weight_filler {
      type: "xavier"
    }
    bias_term: false
  }
}
layer {
  bottom: "level3_block6_conv2"
  name: "level3_block6_conv2_bn"
  top: "level3_block6_conv2_bn"
  top: "level3_block6_conv2_bn/temp1"
  top: "level3_block6_conv2_bn/temp2"
  top: "level3_block6_conv2_bn/temp3"
  top: "level3_block6_conv2_bn/temp4"
  type: "BatchNorm"
  batch_norm_param {
    moving_average_fraction: 0.900000
    eps: 0.000020
    use_global_stats: false
    scale_filler {
      type: "constant"
      value: 1 
    }
    bias_filler {
      type: "constant"
      value: 0 
    }
  }
}
layer {
  bottom: "level3_block5_fused"
  bottom: "level3_block6_conv2_bn"
  top: "level3_block6_fused"
  name: "level3_block6_fused"
  type: "Eltwise"
}
layer {
  bottom: "level3_block6_fused"
  top: "level3_block6_fused"
  name: "level3_block6_relu"
  type: "ReLU"
}
layer {
  bottom: "level3_block6_fused"
  top: "level3_block7_conv1"
  name: "level3_block7_conv1"
  type: "Convolution"
  convolution_param {
    num_output: 64
    pad: 1
    kernel_size: 3
    stride: 1
    weight_filler {
      type: "xavier"
    }
    bias_term: false
  }
}
layer {
  bottom: "level3_block7_conv1"
  name: "level3_block7_conv1_bn"
  top: "level3_block7_conv1_bn"
  top: "level3_block7_conv1_bn/temp1"
  top: "level3_block7_conv1_bn/temp2"
  top: "level3_block7_conv1_bn/temp3"
  top: "level3_block7_conv1_bn/temp4"
  type: "BatchNorm"
  batch_norm_param {
    moving_average_fraction: 0.900000
    eps: 0.000020
    use_global_stats: false
    scale_filler {
      type: "constant"
      value: 1 
    }
    bias_filler {
      type: "constant"
      value: 0 
    }
  }
}
layer {
  bottom: "level3_block7_conv1_bn"
  top: "level3_block7_conv1_bn"
  name: "level3_block7_conv1_relu"
  type: "ReLU"
}
layer {
  bottom: "level3_block7_conv1_bn"
  top: "level3_block7_conv2"
  name: "level3_block7_conv2"
  type: "Convolution"
  convolution_param {
    num_output: 64
    pad: 1
    kernel_size: 3
    stride: 1
    weight_filler {
      type: "xavier"
    }
    bias_term: false
  }
}
layer {
  bottom: "level3_block7_conv2"
  name: "level3_block7_conv2_bn"
  top: "level3_block7_conv2_bn"
  top: "level3_block7_conv2_bn/temp1"
  top: "level3_block7_conv2_bn/temp2"
  top: "level3_block7_conv2_bn/temp3"
  top: "level3_block7_conv2_bn/temp4"
  type: "BatchNorm"
  batch_norm_param {
    moving_average_fraction: 0.900000
    eps: 0.000020
    use_global_stats: false
    scale_filler {
      type: "constant"
      value: 1 
    }
    bias_filler {
      type: "constant"
      value: 0 
    }
  }
}
layer {
  bottom: "level3_block6_fused"
  bottom: "level3_block7_conv2_bn"
  top: "level3_block7_fused"
  name: "level3_block7_fused"
  type: "Eltwise"
}
layer {
  bottom: "level3_block7_fused"
  top: "level3_block7_fused"
  name: "level3_block7_relu"
  type: "ReLU"
}
layer {
  bottom: "level3_block7_fused"
  top: "level3_block8_conv1"
  name: "level3_block8_conv1"
  type: "Convolution"
  convolution_param {
    num_output: 64
    pad: 1
    kernel_size: 3
    stride: 1
    weight_filler {
      type: "xavier"
    }
    bias_term: false
  }
}
layer {
  bottom: "level3_block8_conv1"
  name: "level3_block8_conv1_bn"
  top: "level3_block8_conv1_bn"
  top: "level3_block8_conv1_bn/temp1"
  top: "level3_block8_conv1_bn/temp2"
  top: "level3_block8_conv1_bn/temp3"
  top: "level3_block8_conv1_bn/temp4"
  type: "BatchNorm"
  batch_norm_param {
    moving_average_fraction: 0.900000
    eps: 0.000020
    use_global_stats: false
    scale_filler {
      type: "constant"
      value: 1 
    }
    bias_filler {
      type: "constant"
      value: 0 
    }
  }
}
layer {
  bottom: "level3_block8_conv1_bn"
  top: "level3_block8_conv1_bn"
  name: "level3_block8_conv1_relu"
  type: "ReLU"
}
layer {
  bottom: "level3_block8_conv1_bn"
  top: "level3_block8_conv2"
  name: "level3_block8_conv2"
  type: "Convolution"
  convolution_param {
    num_output: 64
    pad: 1
    kernel_size: 3
    stride: 1
    weight_filler {
      type: "xavier"
    }
    bias_term: false
  }
}
layer {
  bottom: "level3_block8_conv2"
  name: "level3_block8_conv2_bn"
  top: "level3_block8_conv2_bn"
  top: "level3_block8_conv2_bn/temp1"
  top: "level3_block8_conv2_bn/temp2"
  top: "level3_block8_conv2_bn/temp3"
  top: "level3_block8_conv2_bn/temp4"
  type: "BatchNorm"
  batch_norm_param {
    moving_average_fraction: 0.900000
    eps: 0.000020
    use_global_stats: false
    scale_filler {
      type: "constant"
      value: 1 
    }
    bias_filler {
      type: "constant"
      value: 0 
    }
  }
}
layer {
  bottom: "level3_block7_fused"
  bottom: "level3_block8_conv2_bn"
  top: "level3_block8_fused"
  name: "level3_block8_fused"
  type: "Eltwise"
}
layer {
  bottom: "level3_block8_fused"
  top: "level3_block8_fused"
  name: "level3_block8_relu"
  type: "ReLU"
}
layer {
  bottom: "level3_block8_fused"
  top: "level3_block9_conv1"
  name: "level3_block9_conv1"
  type: "Convolution"
  convolution_param {
    num_output: 64
    pad: 1
    kernel_size: 3
    stride: 1
    weight_filler {
      type: "xavier"
    }
    bias_term: false
  }
}
layer {
  bottom: "level3_block9_conv1"
  name: "level3_block9_conv1_bn"
  top: "level3_block9_conv1_bn"
  top: "level3_block9_conv1_bn/temp1"
  top: "level3_block9_conv1_bn/temp2"
  top: "level3_block9_conv1_bn/temp3"
  top: "level3_block9_conv1_bn/temp4"
  type: "BatchNorm"
  batch_norm_param {
    moving_average_fraction: 0.900000
    eps: 0.000020
    use_global_stats: false
    scale_filler {
      type: "constant"
      value: 1 
    }
    bias_filler {
      type: "constant"
      value: 0 
    }
  }
}
layer {
  bottom: "level3_block9_conv1_bn"
  top: "level3_block9_conv1_bn"
  name: "level3_block9_conv1_relu"
  type: "ReLU"
}
layer {
  bottom: "level3_block9_conv1_bn"
  top: "level3_block9_conv2"
  name: "level3_block9_conv2"
  type: "Convolution"
  convolution_param {
    num_output: 64
    pad: 1
    kernel_size: 3
    stride: 1
    weight_filler {
      type: "xavier"
    }
    bias_term: false
  }
}
layer {
  bottom: "level3_block9_conv2"
  name: "level3_block9_conv2_bn"
  top: "level3_block9_conv2_bn"
  top: "level3_block9_conv2_bn/temp1"
  top: "level3_block9_conv2_bn/temp2"
  top: "level3_block9_conv2_bn/temp3"
  top: "level3_block9_conv2_bn/temp4"
  type: "BatchNorm"
  batch_norm_param {
    moving_average_fraction: 0.900000
    eps: 0.000020
    use_global_stats: false
    scale_filler {
      type: "constant"
      value: 1 
    }
    bias_filler {
      type: "constant"
      value: 0 
    }
  }
}
layer {
  bottom: "level3_block8_fused"
  bottom: "level3_block9_conv2_bn"
  top: "level3_block9_fused"
  name: "level3_block9_fused"
  type: "Eltwise"
}
layer {
  bottom: "level3_block9_fused"
  top: "level3_block9_fused"
  name: "level3_block9_relu"
  type: "ReLU"
}
layer {
  bottom: "level3_block9_fused"
  top: "pool"
  name: "pool"
  type: "Pooling"
  pooling_param {
    pool: AVE
    kernel_size: 8
    stride: 1
  }
}
layer {
  bottom: "pool"
  top: "fc"
  name: "fc"
  type: "InnerProduct"
  inner_product_param {
    num_output: 10
    weight_filler {
      type: "xavier"
    }
    bias_filler {
      type: "constant"
      value: 0
    }
  }
}
layer {
  name: "accuracy"
  type: "Accuracy"
  bottom: "fc"
  bottom: "label"
  top: "accuracy"
  include {
    phase: TEST
  }
}
layer {
  name: "loss"
  type: "SoftmaxWithLoss"
  bottom: "fc"
  bottom: "label"
  top: "loss"
  include {
    phase: TRAIN
  }
}
